…
          "height": 745
        },
        "outputId": "9bb1a3dc-9e35-457c-dc02-72cde3f29af0"
      },
      "source": [
        "model.summary()"
      ],
      "execution_count": 48,
      "outputs": [
        {
          "output_type": "stream",
          "text": [
            "Model: \"sequential_1\"\n",
            "_________________________________________________________________\n",
            "Layer (type)                 Output Shape              Param #   \n",
            "=================================================================\n",
            "conv1d_1 (Conv1D)            (None, 19, 64)            192       \n",
            "_________________________________________________________________\n",
            "conv1d_2 (Conv1D)            (None, 19, 64)            8256      \n",
            "_________________________________________________________________\n",
            "conv1d_3 (Conv1D)            (None, 19, 64)            8256      \n",
            "_________________________________________________________________\n",
            "conv1d_4 (Conv1D)            (None, 19, 64)            8256      \n",
            "_________________________________________________________________\n",
            "conv1d_5 (Conv1D)            (None, 19, 64)            8256      \n",
            "_________________________________________________________________\n",
            "conv1d_6 (Conv1D)            (None, 19, 64)            8256      \n",
            "_________________________________________________________________\n",
            "conv1d_7 (Conv1D)            (None, 19, 64)            8256      \n",
            "_________________________________________________________________\n",
            "conv1d_8 (Conv1D)            (None, 19, 64)            8256      \n",
            "_________________________________________________________________\n",
            "conv1d_9 (Conv1D)            (None, 19, 64)            8256      \n",
            "_________________________________________________________________\n",
            "conv1d_10 (Conv1D)           (None, 19, 64)            8256      \n",
            "_________________________________________________________________\n",
            "conv1d_11 (Conv1D)           (None, 19, 64)            8256      \n",
            "_________________________________________________________________\n",
            "conv1d_12 (Conv1D)           (None, 19, 64)            8256      \n",
            "_________________________________________________________________\n",
            "max_pooling1d_1 (MaxPooling1 (None, 9, 64)             0         \n",
            "_________________________________________________________________\n",
            "flatten_1 (Flatten)          (None, 576)               0         \n",
            "_________________________________________________________________\n",
            "dense_1 (Dense)              (None, 50)                28850     \n",
            "_________________________________________________________________\n",
            "dense_2 (Dense)              (None, 1)                 51        \n",
            "=================================================================\n",
            "Total params: 119,909\n",
            "Trainable params: 119,909\n",
            "Non-trainable params: 0\n",
            "_________________________________________________________________\n"
          ],
          "name": "stdout"
        }
      ]
    },
    {
      "cell_type": "code",
      "metadata": {
…
